…
I0426 13:32:54.784116  7834 net.cpp:51] Initializing net from parameters: 
name: "YanNet"
state {
  phase: TRAIN
  level: 0
  stage: ""
}
layer {
  name: "data"
  type: "Data"
  top: "data"
  top: "label"
  include {
    phase: TRAIN
  }
  transform_param {
    mirror: true
    crop_size: 45
    mean_file: "/home/lein/yan/caffe/finetunning_thesis/argu_par_ic/1fold_2013_parIC/mean.binaryproto"
  }
  data_param {
    source: "/home/lein/yan/caffe/finetunning_thesis/argu_par_ic/1fold_2013_parIC/img_train_lmdb"
    batch_size: 256
    backend: LMDB
  }
}
layer {
  name: "conv1"
  type: "Convolution"
  bottom: "data"
  top: "conv1"
  param {
    lr_mult: 1
    decay_mult: 1
  }
  param {
    lr_mult: 2
    decay_mult: 0
  }
  convolution_param {
    num_output: 64
    pad: 2
    kernel_size: 5
    stride: 1
    weight_filler {
      type: "gaussian"
      std: 0.0001
    }
    bias_filler {
      type: "constant"
      value: 0
    }
  }
}
layer {
  name: "relu1"
  type: "ReLU"
  bottom: "conv1"
  top: "conv1"
}
layer {
  name: "pool1"
  type: "Pooling"
  bottom: "conv1"
  top: "pool1"
  pooling_param {
    pool: MAX
    kernel_size: 3
    stride: 2
  }
}
layer {
  name: "norm1"
  type: "LRN"
  bottom: "pool1"
  top: "norm1"
  lrn_param {
    local_size: 3
    alpha: 5e-05
    beta: 0.75
    norm_region: WITHIN_CHANNEL
  }
}
layer {
  name: "conv2"
  type: "Convolution"
  bottom: "norm1"
  top: "conv2"
  param {
    lr_mult: 1
    decay_mult: 1
  }
  param {
    lr_mult: 2
    decay_mult: 0
  }
  convolution_param {
    num_output: 128
    pad: 2
    kernel_size: 5
    stride: 1
    weight_filler {
      type: "gaussian"
      std: 0.01
    }
    bias_filler {
      type: "constant"
    }
  }
}
layer {
  name: "relu2"
  type: "ReLU"
  bottom: "conv2"
  top: "conv2"
}
layer {
  name: "pool2"
  type: "Pooling"
  bottom: "conv2"
  top: "pool2"
  pooling_param {
    pool: MAX
    kernel_size: 3
    stride: 2
  }
}
layer {
  name: "norm2"
  type: "LRN"
  bottom: "pool2"
  top: "norm2"
  lrn_param {
    local_size: 3
    alpha: 5e-05
    beta: 0.75
    norm_region: WITHIN_CHANNEL
  }
}
layer {
  name: "conv3"
  type: "Convolution"
  bottom: "norm2"
  top: "conv3"
  param {
    lr_mult: 1
    decay_mult: 1
  }
  param {
    lr_mult: 2
    decay_mult: 0
  }
  convolution_param {
    num_output: 128
    pad: 2
    kernel_size: 5
    stride: 1
    weight_filler {
      type: "gaussian"
      std: 0.01
    }
    bias_filler {
      type: "constant"
    }
  }
}
layer {
  name: "relu3"
  type: "ReLU"
  bottom: "conv3"
  top: "conv3"
}
layer {
  name: "pool3"
  type: "Pooling"
  bottom: "conv3"
  top: "pool3"
  pooling_param {
    pool: MAX
    kernel_size: 3
    stride: 2
  }
}
layer {
  name: "ip1"
  type: "InnerProduct"
  bottom: "pool3"
  top: "ip1"
  param {
    lr_mult: 1
    decay_mult: 1
  }
  param {
    lr_mult: 2
    decay_mult: 0
  }
  inner_product_param {
    num_output: 1024
    weight_filler {
      type: "gaussian"
      std: 0.01
    }
    bias_filler {
      type: "constant"
    }
  }
}
layer {
  name: "relu4"
  type: "ReLU"
  bottom: "ip1"
  top: "ip1"
}
layer {
  name: "drop1"
  type: "Dropout"
  bottom: "ip1"
  top: "ip1"
  dropout_param {
    dropout_ratio: 0.5
  }
}
layer {
  name: "ip2"
  type: "InnerProduct"
  bottom: "ip1"
  top: "ip2"
  param {
    lr_mult: 1
    decay_mult: 1
  }
  param {
    lr_mult: 2
    decay_mult: 0
  }
  inner_product_param {
    num_output: 1
  }
}
layer {
  name: "loss"
  type: "EuclideanLoss"
  bottom: "ip2"
  bottom: "label"
  top: "loss"
}
I0426 13:32:54.784193  7834 layer_factory.hpp:77] Creating layer data
I0426 13:32:54.785112  7834 db_lmdb.cpp:35] Opened lmdb /home/lein/yan/caffe/finetunning_thesis/argu_par_ic/1fold_2013_parIC/img_train_lmdb
I0426 13:32:54.785140  7834 net.cpp:84] Creating Layer data
I0426 13:32:54.785146  7834 net.cpp:380] data -> data
I0426 13:32:54.785174  7834 net.cpp:380] data -> label
I0426 13:32:54.785185  7834 data_transformer.cpp:25] Loading mean file from: /home/lein/yan/caffe/finetunning_thesis/argu_par_ic/1fold_2013_parIC/mean.binaryproto
I0426 13:32:54.786308  7834 data_layer.cpp:45] output data size: 256,3,45,45
I0426 13:32:54.795040  7834 net.cpp:122] Setting up data
I0426 13:32:54.795073  7834 net.cpp:129] Top shape: 256 3 45 45 (1555200)
I0426 13:32:54.795078  7834 net.cpp:129] Top shape: 256 (256)
I0426 13:32:54.795079  7834 net.cpp:137] Memory required for data: 6221824
I0426 13:32:54.795086  7834 layer_factory.hpp:77] Creating layer conv1
I0426 13:32:54.795104  7834 net.cpp:84] Creating Layer conv1
I0426 13:32:54.795107  7834 net.cpp:406] conv1 <- data
I0426 13:32:54.795120  7834 net.cpp:380] conv1 -> conv1
I0426 13:32:54.797019  7834 net.cpp:122] Setting up conv1
I0426 13:32:54.797040  7834 net.cpp:129] Top shape: 256 64 45 45 (33177600)
I0426 13:32:54.797042  7834 net.cpp:137] Memory required for data: 138932224
I0426 13:32:54.797052  7834 layer_factory.hpp:77] Creating layer relu1
I0426 13:32:54.797060  7834 net.cpp:84] Creating Layer relu1
I0426 13:32:54.797061  7834 net.cpp:406] relu1 <- conv1
I0426 13:32:54.797065  7834 net.cpp:367] relu1 -> conv1 (in-place)
I0426 13:32:54.797072  7834 net.cpp:122] Setting up relu1
I0426 13:32:54.797075  7834 net.cpp:129] Top shape: 256 64 45 45 (33177600)
I0426 13:32:54.797078  7834 net.cpp:137] Memory required for data: 271642624
I0426 13:32:54.797081  7834 layer_factory.hpp:77] Creating layer pool1
I0426 13:32:54.797089  7834 net.cpp:84] Creating Layer pool1
I0426 13:32:54.797094  7834 net.cpp:406] pool1 <- conv1
I0426 13:32:54.797108  7834 net.cpp:380] pool1 -> pool1
I0426 13:32:54.797165  7834 net.cpp:122] Setting up pool1
I0426 13:32:54.797173  7834 net.cpp:129] Top shape: 256 64 22 22 (7929856)
I0426 13:32:54.797188  7834 net.cpp:137] Memory required for data: 303362048
I0426 13:32:54.797190  7834 layer_factory.hpp:77] Creating layer norm1
I0426 13:32:54.797199  7834 net.cpp:84] Creating Layer norm1
I0426 13:32:54.797202  7834 net.cpp:406] norm1 <- pool1
I0426 13:32:54.797207  7834 net.cpp:380] norm1 -> norm1
I0426 13:32:54.797441  7834 net.cpp:122] Setting up norm1
I0426 13:32:54.797461  7834 net.cpp:129] Top shape: 256 64 22 22 (7929856)
I0426 13:32:54.797466  7834 net.cpp:137] Memory required for data: 335081472
I0426 13:32:54.797468  7834 layer_factory.hpp:77] Creating layer conv2
I0426 13:32:54.797479  7834 net.cpp:84] Creating Layer conv2
I0426 13:32:54.797482  7834 net.cpp:406] conv2 <- norm1
I0426 13:32:54.797488  7834 net.cpp:380] conv2 -> conv2
I0426 13:32:54.800591  7834 net.cpp:122] Setting up conv2
I0426 13:32:54.800616  7834 net.cpp:129] Top shape: 256 128 22 22 (15859712)
I0426 13:32:54.800618  7834 net.cpp:137] Memory required for data: 398520320
I0426 13:32:54.800626  7834 layer_factory.hpp:77] Creating layer relu2
I0426 13:32:54.800633  7834 net.cpp:84] Creating Layer relu2
I0426 13:32:54.800647  7834 net.cpp:406] relu2 <- conv2
I0426 13:32:54.800650  7834 net.cpp:367] relu2 -> conv2 (in-place)
I0426 13:32:54.800655  7834 net.cpp:122] Setting up relu2
I0426 13:32:54.800658  7834 net.cpp:129] Top shape: 256 128 22 22 (15859712)
I0426 13:32:54.800660  7834 net.cpp:137] Memory required for data: 461959168
I0426 13:32:54.800662  7834 layer_factory.hpp:77] Creating layer pool2
I0426 13:32:54.800668  7834 net.cpp:84] Creating Layer pool2
I0426 13:32:54.800670  7834 net.cpp:406] pool2 <- conv2
I0426 13:32:54.800686  7834 net.cpp:380] pool2 -> pool2
I0426 13:32:54.800726  7834 net.cpp:122] Setting up pool2
I0426 13:32:54.800730  7834 net.cpp:129] Top shape: 256 128 11 11 (3964928)
I0426 13:32:54.800741  7834 net.cpp:137] Memory required for data: 477818880
I0426 13:32:54.800743  7834 layer_factory.hpp:77] Creating layer norm2
I0426 13:32:54.800748  7834 net.cpp:84] Creating Layer norm2
I0426 13:32:54.800761  7834 net.cpp:406] norm2 <- pool2
I0426 13:32:54.800765  7834 net.cpp:380] norm2 -> norm2
I0426 13:32:54.800853  7834 net.cpp:122] Setting up norm2
I0426 13:32:54.800856  7834 net.cpp:129] Top shape: 256 128 11 11 (3964928)
I0426 13:32:54.800858  7834 net.cpp:137] Memory required for data: 493678592
I0426 13:32:54.800870  7834 layer_factory.hpp:77] Creating layer conv3
I0426 13:32:54.800879  7834 net.cpp:84] Creating Layer conv3
I0426 13:32:54.800880  7834 net.cpp:406] conv3 <- norm2
I0426 13:32:54.800884  7834 net.cpp:380] conv3 -> conv3
I0426 13:32:54.805680  7834 net.cpp:122] Setting up conv3
I0426 13:32:54.805701  7834 net.cpp:129] Top shape: 256 128 11 11 (3964928)
I0426 13:32:54.805703  7834 net.cpp:137] Memory required for data: 509538304
I0426 13:32:54.805709  7834 layer_factory.hpp:77] Creating layer relu3
I0426 13:32:54.805714  7834 net.cpp:84] Creating Layer relu3
I0426 13:32:54.805716  7834 net.cpp:406] relu3 <- conv3
I0426 13:32:54.805730  7834 net.cpp:367] relu3 -> conv3 (in-place)
I0426 13:32:54.805734  7834 net.cpp:122] Setting up relu3
I0426 13:32:54.805737  7834 net.cpp:129] Top shape: 256 128 11 11 (3964928)
I0426 13:32:54.805739  7834 net.cpp:137] Memory required for data: 525398016
I0426 13:32:54.805742  7834 layer_factory.hpp:77] Creating layer pool3
I0426 13:32:54.805747  7834 net.cpp:84] Creating Layer pool3
I0426 13:32:54.805748  7834 net.cpp:406] pool3 <- conv3
I0426 13:32:54.805752  7834 net.cpp:380] pool3 -> pool3
I0426 13:32:54.805774  7834 net.cpp:122] Setting up pool3
I0426 13:32:54.805778  7834 net.cpp:129] Top shape: 256 128 5 5 (819200)
I0426 13:32:54.805789  7834 net.cpp:137] Memory required for data: 528674816
I0426 13:32:54.805791  7834 layer_factory.hpp:77] Creating layer ip1
I0426 13:32:54.805797  7834 net.cpp:84] Creating Layer ip1
I0426 13:32:54.805799  7834 net.cpp:406] ip1 <- pool3
I0426 13:32:54.805802  7834 net.cpp:380] ip1 -> ip1
I0426 13:32:54.844780  7834 net.cpp:122] Setting up ip1
I0426 13:32:54.844799  7834 net.cpp:129] Top shape: 256 1024 (262144)
I0426 13:32:54.844802  7834 net.cpp:137] Memory required for data: 529723392
I0426 13:32:54.844808  7834 layer_factory.hpp:77] Creating layer relu4
I0426 13:32:54.844826  7834 net.cpp:84] Creating Layer relu4
I0426 13:32:54.844828  7834 net.cpp:406] relu4 <- ip1
I0426 13:32:54.844835  7834 net.cpp:367] relu4 -> ip1 (in-place)
I0426 13:32:54.844841  7834 net.cpp:122] Setting up relu4
I0426 13:32:54.844843  7834 net.cpp:129] Top shape: 256 1024 (262144)
I0426 13:32:54.844844  7834 net.cpp:137] Memory required for data: 530771968
I0426 13:32:54.844846  7834 layer_factory.hpp:77] Creating layer drop1
I0426 13:32:54.844856  7834 net.cpp:84] Creating Layer drop1
I0426 13:32:54.844858  7834 net.cpp:406] drop1 <- ip1
I0426 13:32:54.844861  7834 net.cpp:367] drop1 -> ip1 (in-place)
I0426 13:32:54.844874  7834 net.cpp:122] Setting up drop1
I0426 13:32:54.844878  7834 net.cpp:129] Top shape: 256 1024 (262144)
I0426 13:32:54.844880  7834 net.cpp:137] Memory required for data: 531820544
I0426 13:32:54.844882  7834 layer_factory.hpp:77] Creating layer ip2
I0426 13:32:54.844888  7834 net.cpp:84] Creating Layer ip2
I0426 13:32:54.844890  7834 net.cpp:406] ip2 <- ip1
I0426 13:32:54.844893  7834 net.cpp:380] ip2 -> ip2
I0426 13:32:54.844959  7834 net.cpp:122] Setting up ip2
I0426 13:32:54.844964  7834 net.cpp:129] Top shape: 256 1 (256)
I0426 13:32:54.844965  7834 net.cpp:137] Memory required for data: 531821568
I0426 13:32:54.844983  7834 layer_factory.hpp:77] Creating layer loss
I0426 13:32:54.844988  7834 net.cpp:84] Creating Layer loss
I0426 13:32:54.844991  7834 net.cpp:406] loss <- ip2
I0426 13:32:54.845005  7834 net.cpp:406] loss <- label
I0426 13:32:54.845010  7834 net.cpp:380] loss -> loss
I0426 13:32:54.845178  7834 net.cpp:122] Setting up loss
…
I0426 13:32:54.845613  7834 net.cpp:294] The NetState phase (1) differed from the phase (0) specified by a rule in layer data
I0426 13:32:54.845710  7834 net.cpp:51] Initializing net from parameters: 
name: "YanNet"
state {
  phase: TEST
}
layer {
  name: "data"
  type: "Data"
  top: "data"
  top: "label"
  include {
    phase: TEST
  }
  transform_param {
    crop_size: 45
    mean_file: "/home/lein/yan/caffe/finetunning_thesis/argu_par_ic/1fold_2013_parIC/mean.binaryproto"
  }
  data_param {
    source: "/home/lein/yan/caffe/finetunning_thesis/argu_par_ic/1fold_2013_parIC/img_test_lmdb"
    batch_size: 50
    backend: LMDB
  }
}
layer {
  name: "conv1"
  type: "Convolution"
  bottom: "data"
  top: "conv1"
  param {
    lr_mult: 1
    decay_mult: 1
  }
  param {
    lr_mult: 2
    decay_mult: 0
  }
  convolution_param {
    num_output: 64
    pad: 2
    kernel_size: 5
    stride: 1
    weight_filler {
      type: "gaussian"
      std: 0.0001
    }
    bias_filler {
      type: "constant"
      value: 0
    }
  }
}
layer {
  name: "relu1"
  type: "ReLU"
  bottom: "conv1"
  top: "conv1"
}
layer {
  name: "pool1"
  type: "Pooling"
  bottom: "conv1"
  top: "pool1"
  pooling_param {
    pool: MAX
    kernel_size: 3
    stride: 2
  }
}
layer {
  name: "norm1"
  type: "LRN"
  bottom: "pool1"
  top: "norm1"
  lrn_param {
    local_size: 3
    alpha: 5e-05
    beta: 0.75
    norm_region: WITHIN_CHANNEL
  }
}
layer {
  name: "conv2"
  type: "Convolution"
  bottom: "norm1"
  top: "conv2"
  param {
    lr_mult: 1
    decay_mult: 1
  }
  param {
    lr_mult: 2
    decay_mult: 0
  }
  convolution_param {
    num_output: 128
    pad: 2
    kernel_size: 5
    stride: 1
    weight_filler {
      type: "gaussian"
      std: 0.01
    }
    bias_filler {
      type: "constant"
    }
  }
}
layer {
  name: "relu2"
  type: "ReLU"
  bottom: "conv2"
  top: "conv2"
}
layer {
  name: "pool2"
  type: "Pooling"
  bottom: "conv2"
  top: "pool2"
  pooling_param {
    pool: MAX
    kernel_size: 3
    stride: 2
  }
}
layer {
  name: "norm2"
  type: "LRN"
  bottom: "pool2"
  top: "norm2"
  lrn_param {
    local_size: 3
    alpha: 5e-05
    beta: 0.75
    norm_region: WITHIN_CHANNEL
  }
}
layer {
  name: "conv3"
  type: "Convolution"
  bottom: "norm2"
  top: "conv3"
  param {
    lr_mult: 1
    decay_mult: 1
  }
  param {
    lr_mult: 2
    decay_mult: 0
  }
  convolution_param {
    num_output: 128
    pad: 2
    kernel_size: 5
    stride: 1
    weight_filler {
      type: "gaussian"
      std: 0.01
    }
    bias_filler {
      type: "constant"
    }
  }
}
layer {
  name: "relu3"
  type: "ReLU"
  bottom: "conv3"
  top: "conv3"
}
layer {
  name: "pool3"
  type: "Pooling"
  bottom: "conv3"
  top: "pool3"
  pooling_param {
    pool: MAX
    kernel_size: 3
    stride: 2
  }
}
layer {
  name: "ip1"
  type: "InnerProduct"
  bottom: "pool3"
  top: "ip1"
  param {
    lr_mult: 1
    decay_mult: 1
  }
  param {
    lr_mult: 2
    decay_mult: 0
  }
  inner_product_param {
    num_output: 1024
    weight_filler {
      type: "gaussian"
      std: 0.01
    }
    bias_filler {
      type: "constant"
    }
  }
}
layer {
  name: "relu4"
  type: "ReLU"
  bottom: "ip1"
  top: "ip1"
}
layer {
  name: "drop1"
  type: "Dropout"
  bottom: "ip1"
  top: "ip1"
  dropout_param {
    dropout_ratio: 0.5
  }
}
layer {
  name: "ip2"
  type: "InnerProduct"
  bottom: "ip1"
  top: "ip2"
  param {
    lr_mult: 1
    decay_mult: 1
  }
  param {
    lr_mult: 2
    decay_mult: 0
  }
  inner_product_param {
    num_output: 1
  }
}
layer {
  name: "loss"
  type: "EuclideanLoss"
  bottom: "ip2"
  bottom: "label"
  top: "loss"
}
I0426 13:32:54.845769  7834 layer_factory.hpp:77] Creating layer data
I0426 13:32:54.845821  7834 db_lmdb.cpp:35] Opened lmdb /home/lein/yan/caffe/finetunning_thesis/argu_par_ic/1fold_2013_parIC/img_test_lmdb
I0426 13:32:54.845837  7834 net.cpp:84] Creating Layer data
I0426 13:32:54.845840  7834 net.cpp:380] data -> data
I0426 13:32:54.845845  7834 net.cpp:380] data -> label
I0426 13:32:54.845850  7834 data_transformer.cpp:25] Loading mean file from: /home/lein/yan/caffe/finetunning_thesis/argu_par_ic/1fold_2013_parIC/mean.binaryproto
I0426 13:32:54.845989  7834 data_layer.cpp:45] output data size: 50,3,45,45
I0426 13:32:54.848662  7834 net.cpp:122] Setting up data
I0426 13:32:54.848685  7834 net.cpp:129] Top shape: 50 3 45 45 (303750)
I0426 13:32:54.848690  7834 net.cpp:129] Top shape: 50 (50)
I0426 13:32:54.848691  7834 net.cpp:137] Memory required for data: 1215200
I0426 13:32:54.848695  7834 layer_factory.hpp:77] Creating layer conv1
I0426 13:32:54.848701  7834 net.cpp:84] Creating Layer conv1
I0426 13:32:54.848704  7834 net.cpp:406] conv1 <- data
I0426 13:32:54.848709  7834 net.cpp:380] conv1 -> conv1
I0426 13:32:54.848991  7834 net.cpp:122] Setting up conv1
I0426 13:32:54.849010  7834 net.cpp:129] Top shape: 50 64 45 45 (6480000)
I0426 13:32:54.849014  7834 net.cpp:137] Memory required for data: 27135200
I0426 13:32:54.849020  7834 layer_factory.hpp:77] Creating layer relu1
I0426 13:32:54.849025  7834 net.cpp:84] Creating Layer relu1
I0426 13:32:54.849026  7834 net.cpp:406] relu1 <- conv1
I0426 13:32:54.849030  7834 net.cpp:367] relu1 -> conv1 (in-place)
I0426 13:32:54.849035  7834 net.cpp:122] Setting up relu1
I0426 13:32:54.849037  7834 net.cpp:129] Top shape: 50 64 45 45 (6480000)
I0426 13:32:54.849040  7834 net.cpp:137] Memory required for data: 53055200
I0426 13:32:54.849040  7834 layer_factory.hpp:77] Creating layer pool1
I0426 13:32:54.849045  7834 net.cpp:84] Creating Layer pool1
I0426 13:32:54.849046  7834 net.cpp:406] pool1 <- conv1
I0426 13:32:54.849050  7834 net.cpp:380] pool1 -> pool1
I0426 13:32:54.849082  7834 net.cpp:122] Setting up pool1
I0426 13:32:54.849086  7834 net.cpp:129] Top shape: 50 64 22 22 (1548800)
I0426 13:32:54.849088  7834 net.cpp:137] Memory required for data: 59250400
I0426 13:32:54.849090  7834 layer_factory.hpp:77] Creating layer norm1
I0426 13:32:54.849105  7834 net.cpp:84] Creating Layer norm1
I0426 13:32:54.849107  7834 net.cpp:406] norm1 <- pool1
I0426 13:32:54.849110  7834 net.cpp:380] norm1 -> norm1
I0426 13:32:54.849174  7834 net.cpp:122] Setting up norm1
I0426 13:32:54.849179  7834 net.cpp:129] Top shape: 50 64 22 22 (1548800)
I0426 13:32:54.849198  7834 net.cpp:137] Memory required for data: 65445600
I0426 13:32:54.849200  7834 layer_factory.hpp:77] Creating layer conv2
I0426 13:32:54.849206  7834 net.cpp:84] Creating Layer conv2
I0426 13:32:54.849208  7834 net.cpp:406] conv2 <- norm1
I0426 13:32:54.849212  7834 net.cpp:380] conv2 -> conv2
I0426 13:32:54.851755  7834 net.cpp:122] Setting up conv2
I0426 13:32:54.851763  7834 net.cpp:129] Top shape: 50 128 22 22 (3097600)
I0426 13:32:54.851776  7834 net.cpp:137] Memory required for data: 77836000
I0426 13:32:54.851781  7834 layer_factory.hpp:77] Creating layer relu2
I0426 13:32:54.851786  7834 net.cpp:84] Creating Layer relu2
I0426 13:32:54.851788  7834 net.cpp:406] relu2 <- conv2
I0426 13:32:54.851791  7834 net.cpp:367] relu2 -> conv2 (in-place)
I0426 13:32:54.851795  7834 net.cpp:122] Setting up relu2
I0426 13:32:54.851799  7834 net.cpp:129] Top shape: 50 128 22 22 (3097600)
I0426 13:32:54.851800  7834 net.cpp:137] Memory required for data: 90226400
I0426 13:32:54.851802  7834 layer_factory.hpp:77] Creating layer pool2
I0426 13:32:54.851805  7834 net.cpp:84] Creating Layer pool2
I0426 13:32:54.851807  7834 net.cpp:406] pool2 <- conv2
I0426 13:32:54.851810  7834 net.cpp:380] pool2 -> pool2
I0426 13:32:54.851832  7834 net.cpp:122] Setting up pool2
I0426 13:32:54.851845  7834 net.cpp:129] Top shape: 50 128 11 11 (774400)
I0426 13:32:54.851847  7834 net.cpp:137] Memory required for data: 93324000
I0426 13:32:54.851848  7834 layer_factory.hpp:77] Creating layer norm2
I0426 13:32:54.851864  7834 net.cpp:84] Creating Layer norm2
I0426 13:32:54.851866  7834 net.cpp:406] norm2 <- pool2
I0426 13:32:54.851871  7834 net.cpp:380] norm2 -> norm2
I0426 13:32:54.851955  7834 net.cpp:122] Setting up norm2
I0426 13:32:54.851961  7834 net.cpp:129] Top shape: 50 128 11 11 (774400)
I0426 13:32:54.851974  7834 net.cpp:137] Memory required for data: 96421600
I0426 13:32:54.851975  7834 layer_factory.hpp:77] Creating layer conv3
I0426 13:32:54.851984  7834 net.cpp:84] Creating Layer conv3
I0426 13:32:54.851985  7834 net.cpp:406] conv3 <- norm2
I0426 13:32:54.851989  7834 net.cpp:380] conv3 -> conv3
I0426 13:32:54.856743  7834 net.cpp:122] Setting up conv3
I0426 13:32:54.856752  7834 net.cpp:129] Top shape: 50 128 11 11 (774400)
I0426 13:32:54.856755  7834 net.cpp:137] Memory required for data: 99519200
I0426 13:32:54.856760  7834 layer_factory.hpp:77] Creating layer relu3
I0426 13:32:54.856765  7834 net.cpp:84] Creating Layer relu3
I0426 13:32:54.856766  7834 net.cpp:406] relu3 <- conv3
I0426 13:32:54.856770  7834 net.cpp:367] relu3 -> conv3 (in-place)
I0426 13:32:54.856773  7834 net.cpp:122] Setting up relu3
I0426 13:32:54.856775  7834 net.cpp:129] Top shape: 50 128 11 11 (774400)
I0426 13:32:54.856777  7834 net.cpp:137] Memory required for data: 102616800
I0426 13:32:54.856779  7834 layer_factory.hpp:77] Creating layer pool3
I0426 13:32:54.856783  7834 net.cpp:84] Creating Layer pool3
I0426 13:32:54.856786  7834 net.cpp:406] pool3 <- conv3
I0426 13:32:54.856787  7834 net.cpp:380] pool3 -> pool3
I0426 13:32:54.856809  7834 net.cpp:122] Setting up pool3
I0426 13:32:54.856814  7834 net.cpp:129] Top shape: 50 128 5 5 (160000)
I0426 13:32:54.856817  7834 net.cpp:137] Memory required for data: 103256800
I0426 13:32:54.856817  7834 layer_factory.hpp:77] Creating layer ip1
I0426 13:32:54.856822  7834 net.cpp:84] Creating Layer ip1
I0426 13:32:54.856823  7834 net.cpp:406] ip1 <- pool3
I0426 13:32:54.856844  7834 net.cpp:380] ip1 -> ip1
I0426 13:32:54.895118  7834 net.cpp:122] Setting up ip1
I0426 13:32:54.895138  7834 net.cpp:129] Top shape: 50 1024 (51200)
I0426 13:32:54.895140  7834 net.cpp:137] Memory required for data: 103461600
I0426 13:32:54.895146  7834 layer_factory.hpp:77] Creating layer relu4
I0426 13:32:54.895153  7834 net.cpp:84] Creating Layer relu4
I0426 13:32:54.895156  7834 net.cpp:406] relu4 <- ip1
I0426 13:32:54.895160  7834 net.cpp:367] relu4 -> ip1 (in-place)
I0426 13:32:54.895176  7834 net.cpp:122] Setting up relu4
I0426 13:32:54.895179  7834 net.cpp:129] Top shape: 50 1024 (51200)
I0426 13:32:54.895192  7834 net.cpp:137] Memory required for data: 103666400
I0426 13:32:54.895195  7834 layer_factory.hpp:77] Creating layer drop1
I0426 13:32:54.895200  7834 net.cpp:84] Creating Layer drop1
I0426 13:32:54.895201  7834 net.cpp:406] drop1 <- ip1
I0426 13:32:54.895205  7834 net.cpp:367] drop1 -> ip1 (in-place)
I0426 13:32:54.895223  7834 net.cpp:122] Setting up drop1
I0426 13:32:54.895227  7834 net.cpp:129] Top shape: 50 1024 (51200)
I0426 13:32:54.895229  7834 net.cpp:137] Memory required for data: 103871200
I0426 13:32:54.895231  7834 layer_factory.hpp:77] Creating layer ip2
I0426 13:32:54.895236  7834 net.cpp:84] Creating Layer ip2
I0426 13:32:54.895237  7834 net.cpp:406] ip2 <- ip1
I0426 13:32:54.895241  7834 net.cpp:380] ip2 -> ip2
I0426 13:32:54.895310  7834 net.cpp:122] Setting up ip2
I0426 13:32:54.895314  7834 net.cpp:129] Top shape: 50 1 (50)
I0426 13:32:54.895316  7834 net.cpp:137] Memory required for data: 103871400
I0426 13:32:54.895323  7834 layer_factory.hpp:77] Creating layer loss
I0426 13:32:54.895329  7834 net.cpp:84] Creating Layer loss
I0426 13:32:54.895331  7834 net.cpp:406] loss <- ip2
I0426 13:32:54.895334  7834 net.cpp:406] loss <- label
I0426 13:32:54.895346  7834 net.cpp:380] loss -> loss
I0426 13:32:54.895370  7834 net.cpp:122] Setting up loss
…
